…
Instructions for updating:
Use tf.cast instead.
2019-05-06 10:51:28.307327: I tensorflow/core/platform/cpu_feature_guard.cc:141] Your CPU supports instructions that this TensorFlow binary was not compiled to use: AVX2 FMA
Found 262119 unique tokens.
Shape of data tensor: (287351, 100)
Shape of label tensor: (287351, 35)
train docs: 183904 183904
val docs: 45976 45976
test docs: 57471 57471
_________________________________________________________________
Layer (type)                 Output Shape              Param #   
=================================================================
embedding_1 (Embedding)      (None, 100, 200)          52424000  
_________________________________________________________________
dropout_1 (Dropout)          (None, 100, 200)          0         
_________________________________________________________________
conv1d_1 (Conv1D)            (None, 98, 250)           150250    
_________________________________________________________________
max_pooling1d_1 (MaxPooling1 (None, 32, 250)           0         
_________________________________________________________________
flatten_1 (Flatten)          (None, 8000)              0         
_________________________________________________________________
dense_1 (Dense)              (None, 200)               1600200   
_________________________________________________________________
dense_2 (Dense)              (None, 35)                7035      
=================================================================
Total params: 54,181,485
Trainable params: 54,181,485
Non-trainable params: 0
_________________________________________________________________
Train on 183904 samples, validate on 45976 samples
Epoch 1/2

   128/183904 [..............................] - ETA: 1:31:34 - loss: 3.4954 - acc: 0.1406
   256/183904 [..............................] - ETA: 55:06 - loss: 1.7724 - acc: 0.5703  
…
